…
/mm17ktn/LatentStability/RB
<KeysViewHDF5 ['b_all', 'q_all', 'total_time_all', 'u_all', 'w_all']>
q_all
<HDF5 dataset "q_all": shape (12500, 256, 1, 64), type "<f8">
shape of dataset (12500, 256, 64, 1)
(12500, 256, 64, 1)
Shape of KS data: (12500, 1, 256)
(10000, 1, 256) (2000, 1, 256) (500, 1, 256)
==========================================================================================
Layer (type:depth-idx)                   Output Shape              Param #
==========================================================================================
CAE                                      [1, 8]                    --
├─Sequential: 1-1                        [1, 8]                    --
│    └─Conv1d: 2-1                       [1, 2, 125]               18
│    └─Tanh: 2-2                         [1, 2, 125]               --
│    └─Conv1d: 2-3                       [1, 4, 59]                68
│    └─Tanh: 2-4                         [1, 4, 59]                --
│    └─Conv1d: 2-5                       [1, 8, 28]                168
│    └─Tanh: 2-6                         [1, 8, 28]                --
│    └─Conv1d: 2-7                       [1, 16, 8]                656
│    └─Tanh: 2-8                         [1, 16, 8]                --
│    └─Conv1d: 2-9                       [1, 32, 2]                1,568
│    └─Tanh: 2-10                        [1, 32, 2]                --
│    └─Flatten: 2-11                     [1, 64]                   --
│    └─Linear: 2-12                      [1, 8]                    520
│    └─Tanh: 2-13                        [1, 8]                    --
├─Sequential: 1-2                        [1, 1, 256]               --
│    └─Linear: 2-14                      [1, 64]                   576
│    └─Tanh: 2-15                        [1, 64]                   --
│    └─Unflatten: 2-16                   [1, 32, 2]                --
│    └─ConvTranspose1d: 2-17             [1, 16, 6]                1,552
│    └─ConvTranspose1d: 2-18             [1, 16, 8]                784
│    └─Tanh: 2-19                        [1, 16, 8]                --
│    └─ConvTranspose1d: 2-20             [1, 8, 26]                648
│    └─ConvTranspose1d: 2-21             [1, 8, 26]                200
│    └─Tanh: 2-22                        [1, 8, 26]                --
│    └─ConvTranspose1d: 2-23             [1, 4, 81]                196
│    └─ConvTranspose1d: 2-24             [1, 4, 83]                52
│    └─Tanh: 2-25                        [1, 4, 83]                --
│    └─ConvTranspose1d: 2-26             [1, 2, 254]               66
│    └─ConvTranspose1d: 2-27             [1, 1, 256]               7
│    └─Tanh: 2-28                        [1, 1, 256]               --
==========================================================================================
Total params: 7,079
Trainable params: 7,079
Non-trainable params: 0
Total mult-adds (M): 0.10
==========================================================================================
Input size (MB): 0.00
Forward/backward pass size (MB): 0.02
Params size (MB): 0.03
Estimated Total Size (MB): 0.05
==========================================================================================
==========================================================================================
Layer (type:depth-idx)                   Output Shape              Param #
==========================================================================================
CAE                                      [1, 8]                    --
├─Sequential: 1-1                        [1, 8]                    --
│    └─Conv1d: 2-1                       [1, 2, 125]               18
│    └─Tanh: 2-2                         [1, 2, 125]               --
│    └─Conv1d: 2-3                       [1, 4, 59]                68
│    └─Tanh: 2-4                         [1, 4, 59]                --
│    └─Conv1d: 2-5                       [1, 8, 28]                168
│    └─Tanh: 2-6                         [1, 8, 28]                --
│    └─Conv1d: 2-7                       [1, 16, 8]                656
│    └─Tanh: 2-8                         [1, 16, 8]                --
│    └─Conv1d: 2-9                       [1, 32, 2]                1,568
│    └─Tanh: 2-10                        [1, 32, 2]                --
│    └─Flatten: 2-11                     [1, 64]                   --
│    └─Linear: 2-12                      [1, 8]                    520
│    └─Tanh: 2-13                        [1, 8]                    --
├─Sequential: 1-2                        [1, 1, 256]               --
│    └─Linear: 2-14                      [1, 64]                   576
│    └─Tanh: 2-15                        [1, 64]                   --
│    └─Unflatten: 2-16                   [1, 32, 2]                --
│    └─ConvTranspose1d: 2-17             [1, 16, 6]                1,552
│    └─ConvTranspose1d: 2-18             [1, 16, 8]                784
│    └─Tanh: 2-19                        [1, 16, 8]                --
│    └─ConvTranspose1d: 2-20             [1, 8, 26]                648
│    └─ConvTranspose1d: 2-21             [1, 8, 26]                200
│    └─Tanh: 2-22                        [1, 8, 26]                --
│    └─ConvTranspose1d: 2-23             [1, 4, 81]                196
│    └─ConvTranspose1d: 2-24             [1, 4, 83]                52
│    └─Tanh: 2-25                        [1, 4, 83]                --
│    └─ConvTranspose1d: 2-26             [1, 2, 254]               66
│    └─ConvTranspose1d: 2-27             [1, 1, 256]               7
│    └─Tanh: 2-28                        [1, 1, 256]               --
==========================================================================================
Total params: 7,079
Trainable params: 7,079
Non-trainable params: 0
Total mult-adds (M): 0.10
==========================================================================================
Input size (MB): 0.00
Forward/backward pass size (MB): 0.02
Params size (MB): 0.03
Estimated Total Size (MB): 0.05
==========================================================================================
…
